A2/behavioral_cloning_CartPole-v1.pt (torch, 4462 bytes, 6 tensors)

fc1.weight f4 [16, 4]
0	0x3f4b2a6c	0.79361606
1	0xbeb5adf4	-0.35484278
2	0xbefe9cf1	-0.49729112
3	0xbfce299f	-1.6106452
4	0xbce6ada6	-0.028158974
5	0x3e183758	0.14864862
6	0x3ee83e6f	0.45360133
7	0x3fb7cd5b	1.4359545
8	0xbe82efae	-0.25573486
9	0xbef5429e	-0.47902387
10	0x3deee829	0.11665375
11	0xbd541557	-0.051778164
12	0x3e37f6a4	0.1796518
13	0x3e3733d0	0.17890859
14	0xbea1867c	-0.31547916
15	0xbf7c72ac	-0.98612475
16	0xbc31621a	-0.010826612
17	0x3ea5bf55	0.32372537
18	0xbd5409b1	-0.051767055
19	0xbf89a45b	-1.0753282
20	0xbdb1e2b8	-0.08685821
21	0xbe2945fc	-0.16530603
22	0x3e9399c8	0.28828263
23	0xbe2fe324	-0.17176491
24	0xbd4571fb	-0.048204403
25	0xbe86c4e5	-0.26322094
26	0x3fd68494	1.675921
27	0x3f6f8191	0.9355708
28	0x3dc2a4fe	0.09504126
29	0x3e60e61c	0.2196278
30	0x3eeba867	0.46026918
31	0x3fb0ce4f	1.381296
32	0x3e657557	0.22408043
33	0xbed4ec53	-0.4158655
34	0xbf0c92e1	-0.5491162
35	0xbfbe2704	-1.4855657
36	0x3f30040b	0.6875617
37	0xbee05a43	-0.43818864
38	0xbf386f17	-0.7204451
39	0xbfa5b6d4	-1.294642
40	0xbf1594e6	-0.58430326
41	0x3f10ac84	0.5651324
42	0x3f0662cf	0.5249452
43	0x3f9e4f6c	1.2367988
44	0x3d9209ef	0.07130801
45	0x3de473d0	0.11154902
46	0xbf9cdc0b	-1.2254652
47	0xbf9fd7a6	-1.2487686
48	0xbea39300	-0.3194809
49	0x3f5a8e1c	0.8537309
50	0x3efdc331	0.49562982
51	0x3fe82e75	1.8139178
52	0xbdf8602d	-0.12127719
53	0x3ea695df	0.32536218
54	0x3f4c3ee5	0.7978347
55	0x3fad4c09	1.3538829
56	0x3d62ac72	0.055340238
57	0x3f239eff	0.63914484
58	0x3ec13980	0.37739182
59	0x3fab73ec	1.3394752
60	0x3f1546e1	0.5831128
61	0xbfa316be	-1.2741315
62	0xbeb2cbc5	-0.3492109
63	0xbff6e61e	-1.9288976

fc1.bias f4 [16]
0	0x3e2ea565	0.1705528
1	0x3e406472	0.18788317
2	0xbe9b80ec	-0.30371797
3	0x3e7a4331	0.24439694
4	0x3dcc88e7	0.099870495
5	0xbee8b80e	-0.45452923
6	0x38cc43c0	9.7400974e-05
7	0x3e10c516	0.14137682
8	0x3ebe5945	0.37177482
9	0x3ec6651a	0.3874901
10	0x3ed76ec5	0.42076698
11	0x3eaa6d8b	0.332867
12	0x3d9df55d	0.07712815
13	0x3e157aa4	0.14597565
14	0x3ee14389	0.43996838
15	0x3ebb424f	0.36574027

fc2.weight f4 [16, 16]
0	0x3f50646c	0.8140323
1	0xbf23c67d	-0.63974744
2	0x3d8f71a2	0.070040956
3	0x3eafed7c	0.34360874
4	0x3ebc4f32	0.3677917
5	0xbe794bf4	-0.2434538
6	0xbec4ca9e	-0.38435835
7	0xbf2a99ef	-0.66641134
8	0x3f3e9501	0.7444611
9	0x3f625f14	0.8842633
10	0xbea1334d	-0.31484452
11	0x3ece352b	0.4027494
12	0xbf573026	-0.84057844
13	0xbf3ac5b6	-0.7295793
14	0xbe029b8a	-0.12754646
15	0x3fb9bfec	1.4511695
16	0xbf358c9e	-0.7091769
17	0x3ea24635	0.3169419
18	0xbe3b8e0d	-0.18315907
19	0xbe1c6077	-0.15271173
20	0xbe886e28	-0.26646543
21	0x3c8ea450	0.017412335
22	0x3eab2e83	0.33433923
23	0x3ea712c6	0.3263151
24	0xbed01549	-0.4064124
25	0xbebaca74	-0.36482584
26	0x3f340e2d	0.7033413
27	0xbed0f366	-0.40810698
28	0x3f2b1b25	0.66838294
29	0x3f3df17a	0.7419659
30	0x3f16aa9d	0.58854085
31	0xbfd9cb2c	-1.7015128
32	0xbf49ae6d	-0.7878178
33	0x3ecf9390	0.4054227
34	0x3e40c176	0.188238
35	0xbecc13e8	-0.39858937
36	0xbe2e6156	-0.17029318
37	0xbd1775d0	-0.03697759
38	0x3ea5ee06	0.3240816
39	0x3ebdf327	0.37099573
40	0xbf2488d6	-0.64271295
41	0xbe93984b	-0.28827128
42	0x3f28b270	0.65897274
43	0xbd4bcbba	-0.049754836
44	0x3f86461c	1.0490146
45	0x3f28bd72	0.6591407
46	0x3ea2be73	0.31785926
47	0xbfc16e1b	-1.5111727
48	0x3f824bce	1.0179384
49	0xbe945b4b	-0.289759
50	0xbd07c341	-0.033145193
51	0x3e160ecf	0.14654087
52	0x3efd7242	0.49501234
53	0x3bcf7940	0.006331593
54	0xbe5cc04e	-0.21557733
55	0xbed3916d	-0.4132189
56	0x3f78a7c2	0.9713098
57	0x3f55d22e	0.83523834
58	0xbf135511	-0.57551676
59	0x3f2ac97e	0.667137
60	0xbf424810	-0.7589121
61	0xbf35f6f4	-0.71079946
62	0xbedb4e29	-0.4283307
63	0x3fce6cf0	1.6126995
64	0x3f5f905b	0.87329644
65	0xbf122b57	-0.5709738
66	0x3dfd57a8	0.12370235
67	0x3eaca733	0.33721313
68	0x3e626e19	0.22112311
69	0x3dbbb650	0.09165633
70	0xbea13dd7	-0.31492493
71	0xbeb35a5c	-0.35029876
72	0x3f5d6407	0.86480755
73	0x3f444ff5	0.76684505
74	0xbe93a41a	-0.28836137
75	0x3f072fd8	0.5280738
76	0xbf7249fb	-0.94644135
77	0xbf1e1394	-0.61748624
78	0xbe94c36c	-0.29055345
79	0x3fe970d8	1.8237562
80	0xbf75f637	-0.9607882
81	0x3f041312	0.515916
82	0x3db3c8fc	0.08778569
83	0xbe3467dc	-0.17617744
84	0xbeb59272	-0.3546329
85	0xbddb34e8	-0.107034504
86	0x3ec9839b	0.3935822
87	0x3f19c335	0.6006349
88	0xbf3bd0c5	-0.7336543
89	0xbe79eec4	-0.24407488
90	0x3f0af136	0.5427431
91	0xbeab94f3	-0.33512077
92	0x3f2bd47f	0.6712112
93	0x3f014d1d	0.5050829
94	0x3eea0457	0.45706436
95	0xbfc56a1e	-1.5423009
96	0xbf90c5fd	-1.1310421
97	0x3ebbc18b	0.366711
98	0x3dee6cf1	0.11641873
99	0x3cc9b3d1	0.024621876
100	0x3e20e19e	0.15711066
101	0x3cd989e0	0.026555002
102	0x3efb438d	0.49074975
103	0x3f31f329	0.6951166
104	0xbf4ef1de	-0.8083781
105	0xbe4b2522	-0.19838384
106	0x3f5d0414	0.8633435
107	0x3ccffed1	0.02539006
108	0x3f47c960	0.7804165
109	0x3f19edda	0.6012856
110	0x3eeba0fc	0.4602126
111	0xbfcf7f73	-1.621077
112	0xbdd676c4	-0.104718715
113	0xbe04f018	-0.12982213
114	0xbd851bc0	-0.064994335
115	0xbe09049c	-0.13380665
116	0xbde16994	-0.110064656
117	0xbe7ad064	-0.24493557
118	0xbdb510f0	-0.08841121
119	0xbe67dbc4	-0.22642428
120	0xbe7d564e	-0.24739954
121	0x3d92ca70	0.07167518
122	0xbe364ad8	-0.17801988
123	0xbda51328	-0.080602944
124	0xbc2966e0	-0.010339469
125	0xbc8aa220	-0.01692301
126	0x3da307e0	0.079604864
127	0x3d95b594	0.07310024
128	0xbe90f735	-0.28313604
129	0x3ebc69ae	0.36799377
130	0x3a82d807	0.0009982594
131	0xbe0c822c	-0.13721532
132	0xbc555a9f	-0.013022094
133	0xbbe89800	-0.007098198
134	0x3f06e1db	0.5268838
135	0x3eea5ae4	0.4577247
136	0xbf13990b	-0.576554
137	0xbefa1870	-0.4884677
138	0x3f5da618	0.86581564
139	0xbe957b2b	-0.29195532
140	0x3f8a5c30	1.0809383
141	0x3ec93905	0.39301315
142	0x3ea3241e	0.31863493
143	0xbf9ecf70	-1.2407055
144	0xbf55a7f3	-0.83459395
145	0x3e805061	0.25061324
146	0x3cb679b7	0.022274835
147	0xbe51515d	-0.20441194
148	0xbe8e44ee	-0.27786964
149	0x3e4dcd2e	0.20097801
150	0x3ec482a8	0.38380933
151	0x3f09f3b1	0.5388747
152	0xbee87f69	-0.45409706
153	0xbee80daf	-0.4532294
154	0x3f0b4a5f	0.54410356
155	0xbeecd1b1	-0.46253732
156	0x3f4cd413	0.800111
157	0x3f4f9632	0.81088555
158	0x3ee5f66a	0.44914562
159	0xbfdeb5f2	-1.7399275
160	0xbf1d9667	-0.6155762
161	0x3ee87edd	0.4540929
162	0x3e2acc92	0.166796
163	0x3d4a6853	0.049415898
164	0xbe17aba5	-0.14811571
165	0x3e67a4f4	0.22621518
166	0x3f0d0786	0.55089605
167	0x3f263dd2	0.6493808
168	0xbf44d801	-0.76892096
169	0xbf42ba0a	-0.76065123
170	0x3f5cb3a1	0.8621159
171	0xbe81ccda	-0.25351602
172	0x3f515443	0.817692
173	0x3f084371	0.5322791
174	0x3ee98c32	0.45614773
175	0xbfc95adb	-1.5730852
176	0xbd9035cc	-0.07041511
177	0x3dbcbfe4	0.09216288
178	0x3e1bd8a5	0.15219362
179	0x3dcb72c2	0.09933998
180	0x3d06c41a	0.03290186
181	0x3e14e1be	0.14539239
182	0x3e8b3d61	0.27195266
183	0xbcc59e64	-0.024123378
184	0xbec61810	-0.38690233
185	0x3df5782d	0.11985812
186	0x3d919bbc	0.07109782
187	0xbba7dbd2	-0.00512264
188	0xbe447251	-0.19184233
189	0x3e4bb07c	0.19891542
190	0x3db7c021	0.089721926
191	0x3e181478	0.14851558
192	0x3f8a72ee	1.0816324
193	0xbf09babd	-0.53800565
194	0x3e59fcb0	0.21287799
195	0x3ed65174	0.4185902
196	0x3e191e21	0.149529
197	0x3e01568c	0.12630671
198	0xbeea51c4	-0.45765507
199	0xbea22aba	-0.31673223
200	0x3f4aa793	0.7916195
201	0x3f38545a	0.7200371
202	0xbe9db8f3	-0.30805168
203	0x3ef14113	0.4711996
204	0xbf3c9cdd	-0.73676854
205	0xbeec3a92	-0.46138436
206	0xbe97c70c	-0.29644048
207	0x3fb6ad80	1.4271698
208	0xbf6ac314	-0.91703916
209	0x3f380814	0.71887326
210	0x3e0705b3	0.13185768
211	0x3b2fae62	0.002680682
212	0xbe435fcf	-0.19079517
213	0xbd9f47f8	-0.07777399
214	0x3efd821e	0.49513334
215	0x3f10160d	0.56283647
216	0xbf4f2bb8	-0.80926085
217	0xbedcb9b1	-0.4311042
218	0x3f46538d	0.7747124
219	0xbec7c6fe	-0.39019006
220	0x3f3c35db	0.73519677
221	0x3f5ab27f	0.85428613
222	0x3f057aee	0.521407
223	0xbfeb8197	-1.8398923
224	0x3e745bcc	0.23863143
225	0xbe2a4fe4	-0.16632038
226	0x3e6c967a	0.23104277
227	0xbe6a01f2	-0.22852305
228	0xbe2e0310	-0.16993356
229	0xbe0d1650	-0.13778043
230	0x3d07f1b8	0.033189505
231	0x3df14a48	0.11781746
232	0x3c93bea0	0.018035233
233	0xbda7a864	-0.08186415
234	0xbaf00800	-0.0018312931
235	0xbe1358f8	-0.14389408
236	0xbe31fbd6	-0.17381224
237	0xbe67b62a	-0.22628084
238	0x3e64fcf2	0.22362116
239	0xbe2eb684	-0.17061812
240	0xbf35b274	-0.7097542
241	0x3ee6d5e0	0.4508505
242	0xbcf4d313	-0.029885804
243	0xbdc0556a	-0.093912914
244	0x3e4d7da2	0.20067456
245	0x3d4f0100	0.050538063
246	0x3e97c3af	0.29641482
247	0x3ef9e10f	0.4880452
248	0xbf3bf5d1	-0.7342196
249	0xbf214436	-0.62994707
250	0x3f0aa844	0.54163
251	0xbe4e3a5f	-0.20139454
252	0x3f4a6ab1	0.7906905
253	0x3f00d744	0.5032847
254	0x3e8c14e5	0.2735969
255	0xbfbc4a43	-1.4710163

fc2.bias f4 [16]
0	0x3ef51dbb	0.47874245
1	0x3dcadbc1	0.09905196
2	0x3e26e52c	0.1629836
3	0x3f068e8b	0.52561253
4	0x3ef6cda1	0.48203757
5	0x3e9b89ae	0.3037848
6	0xbe03d8fc	-0.12875742
7	0xbe0b50b2	-0.13605002
8	0xbdbbbaa8	-0.09166461
9	0x3ea2f763	0.31829366
10	0x3e30c0ee	0.17261097
11	0xbe71d2a0	-0.23615503
12	0x3ec2d59e	0.38053602
13	0x3e247938	0.16061866
14	0xbe7beb38	-0.24601448
15	0x3e8b098c	0.2715572

fc3.weight f4 [2, 16]
0	0x3f7c2641	0.9849587
1	0xbfa92de6	-1.3217132
2	0xbfa46e97	-1.2846249
3	0x3f2c1477	0.67218727
4	0x3f5a013f	0.8515815
5	0xbf8a4ff3	-1.0805649
6	0xbff19419	-1.8873321
7	0x3e603fd4	0.21899348
8	0xc01044fc	-2.2542105
9	0xbfad4a2e	-1.3538263
10	0xbfb02c85	-1.3763586
11	0xbe78af93	-0.24285726
12	0x3f8c1871	1.0944959
13	0xbfa3c9ce	-1.2795961
14	0x3d2426b8	0.040075988
15	0xc0012d68	-2.0183964
16	0xbf49a0fa	-0.78761256
17	0x3f9a5a08	1.2058725
18	0x3fa7a0b1	1.3095914
19	0xbf8d7bba	-1.1053383
20	0xbf856eea	-1.0424473
21	0x3f8e64ea	1.1124547
22	0x3ffb15af	1.9615992
23	0x3e18180e	0.14852926
24	0x400ecde6	2.231317
25	0x3f805352	1.0025427
26	0x3f91cd6e	1.1390817
27	0xbdc14baf	-0.094382636
28	0xbf4db4c3	-0.80353945
29	0x3f6d8b32	0.9279052
30	0x3e39fc9e	0.18162772
31	0x3ff7d1b8	1.9360876

fc3.bias f4 [2]
0	0x3dea4626	0.11439161
1	0xbe0f5c59	-0.14000072
