A2/best_model_CartPole-v1_no_replay_buffer.pt (torch, 4318 bytes, 6 tensors)

fc1.weight f4 [16, 4]
00000000: 4764 c740 6eba 3640 5a3c 7fbc 3acf f23f
00000010: 8e1e d23f b46b 26c0 c88b 01bf 61a6 5dbf
00000020: 0b8c b1c0 dc49 7340 0421 2541 1e91 8c40
00000030: c628 cdbe 340d 4bbe 816f e53f 80ee f33f
00000040: 0beb 81bf d11f 8b3f 2ece fe3f d5af 923f
00000050: 34e5 173f 4d7c e7bf cfc7 1bc0 6b4c b9bf
00000060: d1ad 3840 77e1 1cc0 9b0d 6cc0 cf2c 97c0
00000070: b4ea 433f 177d 83c0 c34c 4ec0 5c53 99be
00000080: 0b21 a1bf cf54 2640 7155 6340 fb10 f93f
00000090: e071 d5be 4fcc f8be bc56 033e 4ac7 22bf
000000a0: df58 28bf a5b1 4fc0 0f18 80c0 b42f 3bc0
000000b0: 84e3 21bf 1547 0abd e4c8 b83f d7b6 833f
000000c0: 312b 57bd c856 4a3e f4eb 543f c3cb cd3e
000000d0: 1910 90bf 81e7 7b3f a4bc ee3f af67 d23f
000000e0: f5fe 0240 7048 0dc0 46c1 15c0 0a9d cdbf
000000f0: af9a 623e 2efd ddbe 556e 84bf d262 57be
6.230991 2.8551288 -0.015578354 1.896949 1.6415575 -2.6003237 -0.50603914 -0.86582
-5.548345 3.801383 10.32056 4.3927145 -0.4007017 -0.19829255 1.7924653 1.905716
-1.0149854 1.0869085 1.9906671 1.145991 0.5933411 -1.8084809 -2.4340703 -1.4476446
2.885609 -2.4512613 -3.6883304 -4.72422 0.76530004 -4.1090198 -3.2234352 -0.2994641
-1.2588209 2.5989263 3.55209 1.9458307 -0.41688442 -0.48593375 0.12826055 -0.6358534
-0.65760607 -3.2452176 -4.002937 -2.9247866 -0.63237786 -0.033759195 1.4436307 1.0290173
-0.052531425 0.19759667 0.83172536 0.4019452 -1.1254913 0.9840012 1.8651319 1.6437892
2.0468113 -2.2075462 -2.3399215 -1.606355 0.2212932 -0.43357223 -1.0346171 -0.2103379

fc1.bias f4 [16]
00000000: a7ce 87bf 4277 c3c0 840f 25c0 5671 8fc0
00000010: 080c c1bf e396 40c0 3ce4 3fc0 49e2 4ec0
00000020: 5e62 bfbf d4cd 39c0 8b41 d9bd fd6f 69c0
00000030: 0323 7fbf fc33 07c0 fae3 dec0 b12f 87bf
-1.060994 -6.108308 -2.579072 -4.482585 -1.5081797 -3.0092094 -2.9983053 -3.2325613
-1.4951894 -2.9031878 -0.106082045 -3.6474602 -0.996628 -2.1125479 -6.965329 -1.0561429

fc2.weight f4 [16, 16]
00000000: 201c 21bf 66c2 b93e ffff aa3e 4dac c53d
00000010: 5b54 183f fdb6 0bbe 5c94 41bf bcec 4f3e
00000020: 5ee0 4dbe 1f01 a53d 964e 4cbf cdc2 8c3e
00000030: 71e2 ff3d 9642 143e f7d1 b4be e8b3 8a3d
00000040: b5e2 b0bd 0995 28be e384 25be 92b4 49bb
00000050: 55ec bfbb d0c1 cc3b 9a39 eabd a0ec c2bd
00000060: a2cd 98be 67b8 fbbd a759 0dbe d2c7 823e
00000070: 5f13 ccbe ec10 b0be bab6 88bd 59ef 44bd
00000080: 0fdd 9abf 700a 8abf e50d 0ac0 361b 9bbe
00000090: 7ed4 bfbe 4ae9 483f fd4b efbd d251 1ebf
000000a0: 9ba7 9cbf a0d3 dd3e 4b25 11bf 1257 20be
000000b0: 84f4 0bbe 57b4 a7be 88df 83bf bee1 bcbe
000000c0: 74be 33bf c5bf acc1 34df b2bf f8d5 04bf
000000d0: fc97 debf 523a a83e c489 25be a83b 0fbd
000000e0: fcab babf 1a91 a9bd f17a a8bf 245d 48bf
000000f0: d0ef 28bf 6589 3abf 61aa 5e3f 1c30 abbe
00000100: d40b 7fbf 0c8f 79c1 a3cd dfbf 8d94 87bf
00000110: 430c 84bf 7010 56be ba01 28be 4679 a5bf
00000120: 2d39 bdbf 6cb7 bfbf c882 c1bf 3902 56bf
00000130: f054 e7be 6d07 c4be 20de 88bf 2529 b6be
00000140: 3b40 f2be e4c6 83bf 70c4 bdbf f408 f4bc
00000150: 9c04 3dbf 130b d13e bf70 f33f f268 a3bd
00000160: e1a7 fabe 08a0 7a3e 9a35 193e cf48 493e
00000170: 9a2f c53b a3f4 45be a002 fcbe 0fc3 ff3d
00000180: 6418 51bd 4847 70bd 966b cabe daa2 b23c
00000190: 77fc e7bd e47f 60be 21e4 ae3c d0b4 92be
000001a0: c91c d3be d21d 503e 3d67 d43b 0b03 a8bd
000001b0: 24a4 3a3e 5346 0ebe 06c4 5abe 67e5 7bbd
000001c0: d481 dfbe 634e 44bf 43cd b6bf 79a4 c13e
000001d0: c6b8 8abe 8e45 b6be 43ce 983d 1126 07bf
000001e0: 16a6 d63e b808 323c 0766 2bbe 25fe 963e
000001f0: 0255 1f3b 6f85 25be 89c3 6fbe 2b41 68be
00000200: 0776 2b3f 8acf 223f e3f3 7b3f 79a9 673f
00000210: 5a3c 523f ac6d e1bd 1261 f83e 64fc 26bd
00000220: 1584 e03e 6084 81bc e42e 89be 2b34 2e3f
00000230: 4e71 fdbd ee20 9b3e 80f0 b23a 51c9 073f
00000240: 9b73 c2bd 8ad6 37bc 25a8 8dbc 94fc 31be
00000250: 2f6d 983d 102b d5bc 70f6 58bd f435 e9bd
00000260: 68da ec3c 12c6 00be 8c9b 02be f2c1 29be
00000270: 40e2 10bd bd30 97bd 7664 72be d83d ee3d
00000280: 48c2 65be c84f 44be fa81 da3c cc13 a4bd
00000290: 58ab 5fbd 0020 f8bb 40cf 243c 1870 bcbd
000002a0: b2d9 62be c462 dcbd cc7a d1bd 107f 76bd
000002b0: c0c4 57bc aff9 793d c00b 0d3d ba35 26be
000002c0: f76a 1cbf e18b e3bf ce05 ebbf 03a3 1b3e
000002d0: 7b48 98be d740 e6be c8c2 55bf 4204 73bf
000002e0: 9bb1 c9bd 778a bcbe fcdc acbf 72aa eb3e
000002f0: 7e19 4cbe 6179 0dbf 4cbb 22bf 687f 43be
00000300: f7d5 f83d 13fb 05be 6732 f43e 5152 9f3e
00000310: 379b 6ebd f0da 0fbe 8afe 783c 283b 02bf
00000320: 9067 263f 2afd 9dbe c376 c4be 692f e13c
00000330: 25d4 1dbe 9c9d bebd f4b9 78bd c673 7bbe
00000340: b6fa 4ac0 05f9 00c0 2e09 c4bf 9c5f 5abe
00000350: 8c66 07bf 0b68 6ebf b2a4 c4bf 3204 edbd
00000360: 5a4e 91bf bc41 5dbf 78f4 0ec0 6414 99bf
00000370: 5139 c2bd 0629 0cbf 9b44 b0bf f7fd b3be
00000380: 5271 2ebe 2ba5 b0be e143 4dbe 8e10 eb3d
00000390: 63b3 73be ea6e eb3d 391a d9bc c167 ba3d
000003a0: df95 e9be 5c50 1e3e 6d47 62be 734e 20be
000003b0: 3d8c 2d3e 631a a1be b66e f03e a3bd 80bc
000003c0: 0e4d 643e 685f 27be 8c2f 383f 8c11 433f
000003d0: 81b9 88bd 7ef7 f2be bae9 a13c 64e9 b63e
000003e0: 1847 34bd 877f 86be 2038 90be 061c 123f
000003f0: 3068 6dbc 2aa9 453c 3359 86be 8832 083f
-0.6293354 0.36281127 0.33398435 0.096520044 0.59503716 -0.13644023 -0.75617003 0.20305151
-0.2010512 0.080568545 -0.7980741 0.2749237 0.12494362 0.14478526 -0.3531644 0.06772596
-0.08636991 -0.16463102 -0.16163974 -0.0030777794 -0.0058570304 0.00624869 -0.11436768 -0.09517789
-0.29844385 -0.12291031 -0.13803731 0.25543076 -0.3985853 -0.3438791 -0.06675477 -0.048079822
-1.2098712 -1.0784435 -2.157098 -0.30294198 -0.37466806 0.7848097 -0.116844155 -0.618436
-1.2238649 0.4332552 -0.5669753 -0.15658215 -0.13667494 -0.32754776 -1.0302591 -0.36890978
-0.70212483 -21.593637 -1.3974366 -0.5188899 -1.7390132 0.32856995 -0.16165835 -0.034969002
-1.4583735 -0.08279629 -1.3162519 -0.7826712 -0.65990925 -0.728659 0.8697873 -0.33435142
-0.99627423 -15.597424 -1.748463 -1.0592209 -1.0316242 -0.20904708 -0.16406909 -1.2927635
-1.4783074 -1.4977851 -1.5118036 -0.8359714 -0.4518199 -0.38286915 -1.0692787 -0.35578266
-0.4731463 -1.0295072 -1.4825573 -0.029789425 -0.7383516 0.4082876 1.9018782 -0.07979001
-0.48956206 0.2447511 0.14961854 0.1965668 0.0060176374 -0.19331603 -0.49220753 0.12488376
-0.05104865 -0.05866173 -0.39535207 0.02180617 -0.11327451 -0.21923786 0.021349015 -0.28653574
-0.412329 0.20323876 0.0064820335 -0.082037054 0.18226677 -0.13894014 -0.2136384 -0.061498072
-0.43653738 -0.7668211 -1.4281391 0.37820795 -0.27094096 -0.3559994 0.07461216 -0.5279246
0.4192359 0.0108663365 -0.16738139 0.29490772 0.0024312143 -0.16164182 -0.23414434 -0.2268111
0.6697697 0.6359793 0.98419017 0.9049297 0.8212334 -0.110072464 0.4851156 -0.040768042
0.4385077 -0.015810192 -0.26793587 0.6804835 -0.12375127 0.3029856 0.0013651997 0.5304156
-0.09494706 -0.011220584 -0.017292092 -0.17381507 0.074427 -0.02602151 -0.052969396 -0.11387244
0.028912738 -0.12575558 -0.12754649 -0.1657789 -0.03537202 -0.07382343 -0.23671135 0.116328895
-0.22437394 -0.19171059 0.026673306 -0.080115885 -0.054606766 -0.007572174 0.010059178 -0.09201068
-0.22153357 -0.107610255 -0.102285 -0.06017977 -0.013169467 0.061029132 0.034435034 -0.16231433
-0.61100715 -1.7777063 -1.8361146 0.15198903 -0.29742798 -0.44971344 -0.8350034 -0.9492837
-0.09848329 -0.3682439 -1.3504939 0.46028477 -0.199316 -0.55263335 -0.6356704 -0.1909157
0.121501856 -0.13084058 0.47694704 0.3111749 -0.058253493 -0.14048362 0.015197406 -0.50871515
0.65001774 -0.3085721 -0.38371858 0.027488427 -0.15412958 -0.09307405 -0.060724214 -0.24555883
-3.1715522 -2.015199 -1.5315301 -0.21325535 -0.5289085 -0.93127507 -1.5362761 -0.11573066
-1.1352036 -0.8642843 -2.2336712 -1.1959348 -0.094835885 -0.54750097 -1.3770937 -0.35154697
-0.17035416 -0.34501013 -0.20045425 0.11477767 -0.237989 0.114957646 -0.026501762 0.09101821
-0.45622155 0.15460342 -0.2209756 -0.15654926 0.16948028 -0.31465444 0.46959466 -0.015715426
0.22295019 -0.16344988 0.7194755 0.7619865 -0.06676007 -0.47454447 0.01976477 0.35724938
-0.044013113 -0.2626917 -0.2816782 0.5707401 -0.014490172 0.012064258 -0.2623993 0.53202105

fc2.bias f4 [16]
00000000: 7b48 0b3f 4780 30be 0e74 7d3f e0aa ebbd
00000010: fcb6 26bd 5f6e 9d3f 14c6 3a3e 3644 953f
00000020: f9aa 98bf 1c4e 58be 2279 56be 14e1 7540
00000030: 5a93 43be 8ef8 ba40 1286 14be 5dbe dbbe
0.5440747 -0.17236434 0.9900521 -0.11507201 -0.04070185 1.2299308 0.18239623 1.1661441
-1.1927177 -0.21123546 -0.20944646 3.8418627 -0.19099179 5.842841 -0.14504269 -0.42918673

fc3.weight f4 [2, 16]
00000000: 3e46 54bf 344a 813d 2d2b 9f3f 40e7 0ec1
00000010: f5c7 b7c0 334f ca3f 119c 053e 12cd 373f
00000020: 2f1f 32bf c9ad 93bc f4f1 e1bd 2d31 a93f
00000030: 543b cdbe d624 d53f 96d7 033f 4106 37bf
00000040: 2da6 233f 58d9 4a3e ac54 99bf 8a5e b43f
00000050: 1a9a d93f 99e5 c2bf 9b08 c8be d2ff 36bf
00000060: ec4f 88bf baa1 273e 1a4b e9bc a615 da3f
00000070: f11b efbe b453 3340 2bb9 edbe fc4d d4be
-0.8291968 0.06312981 1.2435051 -8.9314575 -5.743159 1.580542 0.13047816 0.7179729
-0.6957883 -0.018027203 -0.11032477 1.3218132 -0.40084326 1.6651866 0.51500833 -0.7149392
0.6392544 0.19809473 -1.1978965 1.4091351 1.7000153 -1.5226318 -0.39069065 -0.714841
-1.064939 0.16370288 -0.028478194 1.7037857 -0.46701005 2.8019838 -0.46430334 -0.41465747

fc3.bias f4 [2]
00000000: 1c8d 0d41 1f17 1141
8.846951 9.068145
