A2/best_model_CartPole-v1.pt (torch, 4318 bytes, 6 tensors)

fc1.weight f4 [16, 4]
0	0x3c35301a	0.011058832
1	0x3edc2718	0.42998576
2	0xbeaf5685	-0.34245697
3	0x3d9a7289	0.07541377
4	0xbe4c4a58	-0.19950235
5	0xbe0b5f5c	-0.13610595
6	0x3f057eac	0.5214641
7	0xbc9826a0	-0.018573105
8	0xbe839cac	-0.2570547
9	0x3e987fc4	0.29784977
10	0x3dabe257	0.0839278
11	0x3e06d586	0.1316739
12	0x3e314a29	0.17313446
13	0x3efb939c	0.49136055
14	0xbe5fd6eb	-0.21859328
15	0x3ecb8053	0.3974634
16	0xbf7258ae	-0.94666564
17	0x3f362ffe	0.7116698
18	0x3fc12773	1.5090164
19	0x3f9a37e0	1.2048302
20	0x3efcda80	0.49385452
21	0xbc97bdb8	-0.018523082
22	0xbe6132c0	-0.21992016
23	0x3ddefb5e	0.10887788
24	0x3f067771	0.52526003
25	0x3d933c03	0.07189181
26	0xbf1dfff4	-0.6171868
27	0xbecbd90b	-0.39814028
28	0x3e8fcbe9	0.2808526
29	0x3e03a3bd	0.1285543
30	0x3eada5be	0.33915514
31	0x3e741896	0.23837504
32	0xbe87e8ca	-0.2654479
33	0xbe8144a4	-0.2524768
34	0xbea39c07	-0.31954977
35	0xbedb7aa6	-0.4286701
36	0x3bb04528	0.005379338
37	0x3f2efc8a	0.68354094
38	0x3f4e3027	0.80542225
39	0x3f6c0f5f	0.92210954
40	0x3f307dff	0.68942255
41	0xbecc17ae	-0.39861816
42	0xbf942805	-1.1574713
43	0xbf6a088e	-0.91419303
44	0x3f01a8a9	0.5064798
45	0x3ecabbd0	0.39596415
46	0x3e20aa35	0.15689929
47	0xbeac25e3	-0.33622655
48	0x3e566c18	0.20939672
49	0x3c4b71a4	0.012417231
50	0xbea838d4	-0.32855856
51	0x3e68b9f5	0.22727187
52	0x3d9ae27c	0.0756273
53	0xbf456d45	-0.7711986
54	0xbe73114b	-0.23737065
55	0xbf355122	-0.70826924
56	0xbecda64d	-0.4016594
57	0x3d2951b2	0.041337676
58	0x3caaef5c	0.020866089
59	0xbf509bdc	-0.8148782
60	0xbe58d5fa	-0.21175376
61	0xbee6a8aa	-0.45050555
62	0x3e8831fe	0.2660064
63	0xbed4b051	-0.4154077

fc1.bias f4 [16]
0	0x3f845a62	1.0340083
1	0x3f6f152a	0.9339167
2	0x3fbde106	1.4834297
3	0xbecc6611	-0.3992162
4	0xbf96275a	-1.1730759
5	0x3f9ee974	1.2414994
6	0xbf184c68	-0.59491587
7	0xbefde245	-0.49586692
8	0xbf2b4f67	-0.66918033
9	0x3f329274	0.6975472
10	0xbe7b9773	-0.24569492
11	0x3e0688af	0.13138078
12	0x3fa9b132	1.3257201
13	0x3edb7f4e	0.42870563
14	0xbd5d1ae6	-0.05398073
15	0xbee968fd	-0.45587912

fc2.weight f4 [16, 16]
0	0x3e16930e	0.14704534
1	0x3d0b53b0	0.034015357
2	0xbe454423	-0.19264273
3	0xbda9e2c7	-0.082952075
4	0x3d85e184	0.06537154
5	0xbb57a1f1	-0.003290292
6	0xbd768508	-0.060185462
7	0xbe5cb5c9	-0.2155372
8	0xbc164b94	-0.009173293
9	0x3e1ea0c9	0.15491022
10	0x3e0a6224	0.13514
11	0xbe7584d2	-0.23976448
12	0xbc624cee	-0.013812287
13	0x3e1565fe	0.14589688
14	0xbdea8a06	-0.11452107
15	0xbd455640	-0.048177958
16	0x3f0f3080	0.5593338
17	0xbda600dc	-0.08105633
18	0x3f3d586b	0.7396304
19	0xbd2981a5	-0.041383404
20	0xbf7428db	-0.9537484
21	0x3f3e117f	0.74245447
22	0xbf06a390	-0.52593327
23	0xbd7b3504	-0.061329857
24	0xbeeec2b1	-0.46632913
25	0xbf63c4d5	-0.88972217
26	0xbf26ac95	-0.6510709
27	0x3e057c56	0.13035712
28	0x3f3c4a4b	0.7355086
29	0xbea8b6ad	-0.3295187
30	0xbe1edd2e	-0.15514061
31	0xbe60e8ea	-0.2196385
32	0x3e6f4014	0.23364288
33	0x3ec1e9bb	0.37873635
34	0x3e8faefe	0.28063196
35	0xbe5d363e	-0.21602723
36	0xbf24ec23	-0.64422816
37	0x3eafc5e5	0.3433067
38	0xbeb7489a	-0.35797578
39	0x3da70a45	0.08156256
40	0xbf0cd4fc	-0.5501249
41	0xbf1d6c19	-0.6149307
42	0xbf0c6e34	-0.54855657
43	0x3e7a8427	0.24464475
44	0x3ec0dbb0	0.37667608
45	0xbd8ba18a	-0.068179205
46	0xbc1025b8	-0.008798055
47	0xbe5a009b	-0.21289293
48	0x3ea268a5	0.31720462
49	0x3e2afa67	0.16697083
50	0x3ef88a09	0.48542812
51	0x3d900e19	0.07033939
52	0xbf29c9ca	-0.6632353
53	0x3e376442	0.17909339
54	0xbd6d528b	-0.057940047
55	0x3c651bf5	0.013983716
56	0x3d588a5e	0.052866332
57	0xbe788b5d	-0.24271913
58	0xbebf2775	-0.3733479
59	0x3d55277c	0.05203961
60	0x3da6701c	0.08126852
61	0xbe982fc6	-0.29723948
62	0xbe78f16d	-0.24310847
63	0x3b75a2df	0.0037481112
64	0xbe80c33a	-0.25148946
65	0x3eb99888	0.36249185
66	0x3d0ce14c	0.034394547
67	0xbe5a1774	-0.21298009
68	0x3d8b24c9	0.067941256
69	0xbc128987	-0.008943922
70	0xbc0d7375	-0.008633484
71	0xbe1dbf9c	-0.15405124
72	0xbe4a63c5	-0.19764622
73	0x3e800639	0.25004748
74	0xbd4cbc49	-0.04998425
75	0xbdd4795a	-0.103747085
76	0x3dff76c7	0.12473827
77	0x3dd0db85	0.1019812
78	0xbc862ddb	-0.016379287
79	0x3d42eea5	0.04759087
80	0xbe5f5ec0	-0.21813488
81	0xbe61121e	-0.21979567
82	0x3e4cdc9b	0.2000603
83	0xbe2d782c	-0.16940373
84	0xbbf74d80	-0.0075470805
85	0x3e5e974e	0.21737406
86	0xbe257ef9	-0.16161717
87	0x3cb53e8a	0.022124548
88	0x3e4b3191	0.19843127
89	0xbda995bd	-0.082805134
90	0x3e0d0bbd	0.13774009
91	0x3ce0afdd	0.027427608
92	0xbc89478f	-0.016757755
93	0xbdc14b28	-0.09438163
94	0xbe6195fb	-0.2202987
95	0xbe0a4f4e	-0.13506815
96	0xbc31f380	-0.010861278
97	0xbe119db8	-0.14220321
98	0xbe719fc4	-0.23596102
99	0x3e189462	0.14900354
100	0xbe6f5198	-0.2337097
101	0xbdc7cccc	-0.09755859
102	0xbd5b58e8	-0.053551584
103	0xbd606da8	-0.054792076
104	0xbe0e3074	-0.13885671
105	0x3ddb66a4	0.107129365
106	0x3d403ad0	0.046931088
107	0xbe513f84	-0.20434386
108	0x3e71acc0	0.23601055
109	0x3dfbbde0	0.12292075
110	0xbdef4dac	-0.116847366
111	0xbdc5a2fc	-0.096502274
112	0x3f0ad094	0.54224515
113	0x3f1b28b6	0.60608995
114	0x3f37b435	0.7175935
115	0xbdb634fd	-0.088968255
116	0xbfc611ae	-1.5474145
117	0x3f2805cf	0.65633863
118	0xbe93e651	-0.28886655
119	0x3e0acd60	0.13554907
120	0xbe888309	-0.26662472
121	0xbefabbdc	-0.4897145
122	0xbf50ec86	-0.81610906
123	0xbec356b4	-0.38152087
124	0x3f4572f3	0.77128524
125	0xbf34dade	-0.70646465
126	0xb91e0584	-0.00015070109
127	0xbeba5c0b	-0.36398348
128	0xbe36c8b4	-0.1785
129	0xbe6ed42c	-0.23323125
130	0xbd5cf856	-0.05394777
131	0x3e6471f6	0.22309098
132	0xbd875b10	-0.06609166
133	0x3da09e64	0.078427106
134	0xbb6b50c7	-0.0035906301
135	0xbe42a6ee	-0.19008991
136	0xbcd7933f	-0.02631533
137	0xbd3db21f	-0.046312448
138	0xbc5d6dd0	-0.013514951
139	0xbe61115f	-0.21979283
140	0x3d8fa0ed	0.07013116
141	0xbd2e8e85	-0.042616386
142	0xbe07cefa	-0.13262549
143	0x3e1e7f33	0.1547821
144	0x3e8f0c40	0.27939034
145	0x3ed23c60	0.41061687
146	0x3f3c7314	0.73613095
147	0xbeb77423	-0.35830793
148	0xbfa228e6	-1.2668731
149	0x3ef039b2	0.46919018
150	0xbea2040b	-0.3164371
151	0xbe4ef19d	-0.20209356
152	0xbe6fb417	-0.23408543
153	0xbec2b55f	-0.38029
154	0xbf2c3d20	-0.6728077
155	0xbe635e40	-0.22203922
156	0x3f15ca8c	0.58512187
157	0xbec96450	-0.39334345
158	0xbe1ee6a2	-0.15517667
159	0xbe4ef74a	-0.20211521
160	0x3b5a04de	0.0033267061
161	0x3dfc306c	0.12313923
162	0x3ddd9702	0.10819818
163	0x3dbf830a	0.093511656
164	0xbeb1de14	-0.34739745
165	0x3e3bf18e	0.18353865
166	0x3d800553	0.062510155
167	0xbdbdc8b2	-0.09266795
168	0xbdf1da78	-0.11809248
169	0x3d9cc4ec	0.07654747
170	0xbdf56cfd	-0.119836785
171	0x3d58307b	0.05278061
172	0xbdcb11f5	-0.099155344
173	0xbe59c63d	-0.21267028
174	0x3cbc244c	0.022966526
175	0xbe5d4a79	-0.2161044
176	0x3cf9f0c2	0.03051031
177	0x3ec05380	0.37563705
178	0x3e690023	0.22753958
179	0x3d9a1cfd	0.0752506
180	0x3e0f3e08	0.13988507
181	0x3cf7d8f8	0.030254826
182	0xbe2b5a10	-0.16733575
183	0x3e39ae91	0.18132998
184	0x3e45afcb	0.19305341
185	0x3ef6c0cf	0.48193976
186	0xbecfe312	-0.40602928
187	0xbe9ab17e	-0.3021354
188	0xbdde9b82	-0.108695045
189	0xbd987f8a	-0.07446201
190	0xbe28e7b7	-0.16494642
191	0xbe4820c6	-0.19543752
192	0x3e0562f6	0.13026032
193	0x3d424347	0.047427442
194	0xbdbeb605	-0.09312061
195	0xbdec0410	-0.11524212
196	0xbeadb4c9	-0.3392699
197	0xbc8483e8	-0.016176179
198	0xbd4a7cc9	-0.04943541
199	0xbe836818	-0.25665355
200	0xbded9f66	-0.116026685
201	0xbd92710c	-0.07150468
202	0xbe3c6483	-0.18397717
203	0x3e8398d8	0.25702548
204	0x3d3680f2	0.044556566
205	0xbe247b5f	-0.16062687
206	0x3e6ed16f	0.2332208
207	0xbd98a555	-0.074534096
208	0x3da4ac6b	0.080406986
209	0xbd0cce10	-0.034376204
210	0x3e85ba80	0.2611885
211	0x3e52e11b	0.20593683
212	0x3c3c4ba0	0.01149264
213	0x3e88b630	0.26701498
214	0xbe21ec2d	-0.1581275
215	0x3daabefd	0.083372094
216	0x3e12b6b2	0.14327505
217	0xbe4ea8ff	-0.20181654
218	0x3cf37405	0.029718408
219	0x3ea1efe2	0.3162833
220	0xbd829f41	-0.063780315
221	0x3e3a5e4b	0.18200032
222	0xbbd37da0	-0.0064541847
223	0xbe3084f5	-0.17238219
224	0x3d0f73ed	0.035022665
225	0xbe03c300	-0.12867355
226	0xbd77c65c	-0.060491905
227	0x3e4a81c4	0.19776064
228	0x3e0596ed	0.13045855
229	0x3e007de3	0.12548022
230	0xbd316d2d	-0.04331701
231	0x3d5cd9ae	0.053918533
232	0xbd9ad790	-0.075606465
233	0xbd36ca75	-0.04462667
234	0x3e411bdc	0.18858284
235	0xbd7e109b	-0.062027555
236	0x3e327ad0	0.17429662
237	0xbe84853e	-0.25882906
238	0xbd88c1f6	-0.0667762
239	0x3e1aaf88	0.15106022
240	0xbdfbe3bd	-0.12299297
241	0x3dc4fd92	0.09618677
242	0x3ec24a53	0.3794733
243	0xbdd266d8	-0.10273522
244	0x3eb0b962	0.34516436
245	0xbe64257e	-0.22279927
246	0xbe62f530	-0.22163844
247	0x3e5aabc9	0.21354593
248	0xbdb267e5	-0.087112226
249	0x3ec8f5fb	0.39250168
250	0xbebd8ac5	-0.37019935
251	0xbe08f2d0	-0.13373876
252	0x3e03efb0	0.12884402
253	0xbd98c65a	-0.074597076
254	0xbdbb0eb9	-0.091336675
255	0xbd822bbb	-0.06355997

fc2.bias f4 [16]
0	0xbdb46cba	-0.088098004
1	0x3f52ae5a	0.8229729
2	0x3eff07b4	0.49810565
3	0x3eea8068	0.4580109
4	0xbe3ae705	-0.1825219
5	0xbe3cc1e3	-0.18433337
6	0xbe46be86	-0.19408616
7	0x3f395fb4	0.72411656
8	0x3e4e93a7	0.20173512
9	0x3f457062	0.7712461
10	0x3e6eef3a	0.23333445
11	0xbcdfb46b	-0.02730771
12	0x3e98c248	0.29835725
13	0x3ea8a6b7	0.32939693
14	0x3de6e70b	0.11274537
15	0xbdd28ca6	-0.10280733

fc3.weight f4 [2, 16]
0	0xbc7d80d8	-0.015472613
1	0x3ff90681	1.945511
2	0x3f9d385f	1.2282828
3	0x3f148e78	0.5802989
4	0xbec3f7e6	-0.3827507
5	0x3e17eade	0.14835688
6	0x3e71cb88	0.23612797
7	0x3fc5e779	1.5461265
8	0x3b9bb254	0.004751483
9	0x3f9956d6	1.1979625
10	0x3e879d72	0.2648731
11	0xbf56b6d2	-0.8387271
12	0x3ef05765	0.46941677
13	0x3eacff21	0.33788398
14	0x3d0dc19e	0.034608476
15	0xbf1a9362	-0.6038114
16	0xbe1810fd	-0.1485023
17	0x3f94cad2	1.1624396
18	0x3f3c6ed6	0.7360662
19	0x3f651c59	0.8949638
20	0xbcb315c6	-0.021860968
21	0x3dfc20a2	0.12310912
22	0xbe28f900	-0.16501236
23	0x4001793f	2.0230253
24	0xbe1427ea	-0.14468351
25	0x3fdfb1de	1.7476156
26	0x3eb89fa7	0.36059305
27	0x3da8fbc6	0.08251147
28	0xbdc650ce	-0.09683381
29	0xbe32438b	-0.17408578
30	0xbd66aa3d	-0.056314696
31	0xbe5c7ba0	-0.21531534

fc3.bias f4 [2]
0	0x3fa2052a	1.2657826
1	0x3ef22e4c	0.47300947
